src/neural/xor/layer_2_weights.npy (npy, 608 bytes, 1 tensors)

array f8 [6, 10]
00000000: 54ae a7f7 b793 dabf c4b4 5645 44ac f5bf
00000010: 0a85 8e41 44fe e0bf c7ef 7655 1d08 c53f
00000020: 4bd4 af22 5a9e bdbf d160 18ff 0cde f1bf
00000030: ad5e b0a7 4703 02c0 8d4a 6581 1f31 f4bf
00000040: 8681 2c2b 54e8 f5bf bffe 71af 7101 fa3f
00000050: f737 351a 5046 f53f 84d1 dfda 47c3 f03f
00000060: 0098 fb0b bb74 d33f 89c2 0644 8258 b83f
00000070: 6699 e7b7 385a e5bf b343 adfe 38ea 00c0
00000080: 5a74 a50f 86f1 e0bf 0608 fce9 24ac efbf
00000090: f688 9856 2bad e7bf 006c 0e6c 1800 f7bf
000000a0: d46e b608 be98 e53f 723a 4e21 9f8e f1bf
000000b0: d8bc 1c3f 5d75 c03f 1847 8508 8a7b e2bf
000000c0: 7c33 a9d9 75f3 b1bf f97c f4d3 c5f2 df3f
000000d0: 99c9 3f47 50a6 82bf 83df 2ccc 5bc1 e43f
000000e0: a7f8 5d9c 6f09 f13f 4f27 140e 287a f13f
000000f0: 551d 2e00 491a fdbf 4f78 3ebc a431 f53f
00000100: e804 6622 888c fa3f 24c8 4faa d874 dfbf
00000110: aad3 6fb0 958d ed3f 358b 46fc 5e3b ebbf
00000120: 2b8a 8524 d839 ec3f 08e3 7f3c 8b42 a3bf
00000130: 73c4 114f 7834 cfbf 76ba 336d 4e44 eebf
00000140: 575b 2377 53d3 f5bf 1b79 6758 8da0 f2bf
00000150: 2b12 fbbb c3ef e43f b0f4 f356 e0fb ebbf
00000160: 7c56 bf86 31f7 ce3f 2948 5a76 fc02 b1bf
00000170: 3e02 32ad 8f1c f63f 8561 1bfa f4e0 f2bf
00000180: fa4e e8f9 f973 e4bf f024 849b 770a e1bf
00000190: f0e8 35bc 11be e7bf ec7d 0a2e 212b f13f
000001a0: 64eb c5f2 a54c 0040 c682 6a66 541d dfbf
000001b0: de08 eacd a562 f7bf 67f7 5cea e39d d2bf
000001c0: 65bf 5110 3de7 d83f 0fae dbc5 14ce af3f
000001d0: 772e 325b 566e f33f caf2 ca39 0f4a e8bf
-0.41526602921542133 -1.3545572956602863 -0.5310384064106597 0.16431013749195086 -0.11569751116606246 -1.1167116131455723 -2.251601514882927 -1.2619929365652383
-1.3692208944777078 1.6253525594074032 1.329666235327293 1.0476759481217366 0.30399967355913304 0.09510053787995267 -0.6672633735550277 -2.1143665215135683
-0.5294828706352164 -0.9897636957177844 -0.7398888293576238 -1.4375232907248119 0.674895302788594 -1.09731972703926 0.12858167249348784 -0.5775804678362162
-0.07012116016376341 0.49919267367108905 -0.00910628049311839 0.6486033428000016 1.06480370598687 1.0923233556699932 -1.818917275146153 1.3246199944765242
1.6593095153514756 -0.4915067351531681 0.9235332914382657 -0.8509974410302222 0.8820610726655266 -0.0376170646049499 -0.24378875599680647 -0.9458381779530345
-1.3640932706673163 -1.1641972974098909 0.6542681380747742 -0.8744966219234325 0.24191874579871697 -0.06645181550473524 1.381972958130191 -1.1799211282542228
-0.6391572838788016 -0.5325277364183005 -0.7419518161762237 1.0730296896434721 2.037425896325134 -0.4861651420742813 -1.4615839046023704 -0.29088685881639836
0.38911367982563255 0.062119149353602514 1.214437824472865 -0.7590404633297905
