src/neural/mnist/layer_2_weights.npy (npy, 15488 bytes, 1 tensors)

array f8 [24, 80]
000000 16 c8 15 0d 7a 7c f9 bf 9b 12 75 5f d3 96 9b bf
       -1.5928898345123392 -0.026942541791202684
000010 6a 9f ee e6 c6 6e 96 3f 51 b9 34 8e 69 10 d3 3f
       0.021906955571153665 0.29787672889041966
000020 ab 4e 30 ac 91 20 e7 bf 01 e9 90 f6 7d 99 d0 3f
       -0.722725712114387 0.2593684108611712
000030 49 8b 2d ce c7 3f c4 3f 9d b0 dc 84 93 2f d4 3f
       0.158196426079565 0.31540382361232294
000040 37 ac 5b dd 92 87 e2 bf 49 8b 69 ad 49 ff b6 bf
       -0.5790495227241824 -0.08983288272569924
000050 07 80 31 68 8a b5 fc bf b8 59 dc 43 08 f3 e9 3f
       -1.7943214483311765 0.8109170270352513
000060 cc be 0d 5d 24 b8 cc bf 8e 26 3d fd fe 17 a2 3f
       -0.2243695692409261 0.03533932534498972
000070 f3 6e 80 b2 07 25 d7 bf 57 79 f3 e6 32 ac cd bf
       -0.36163513595395996 -0.23181759144695022
000080 e2 2f 49 1f c6 7c f9 bf e6 23 74 76 45 ac cd 3f
       -1.5929623815636593 0.23181980403776875
000090 6b 79 dc 4c 0e 41 d3 bf 55 e6 ae c0 39 f9 e4 bf
       -0.3008456945989539 -0.6554230464309493
0000a0 44 65 57 d9 43 ae b1 3f c1 90 d0 29 a7 0d d1 bf
       0.06906532341181043 -0.2664583118769422
0000b0 05 59 cd 65 9a d3 f5 3f 32 37 fa 16 22 ba c8 bf
       1.3641609169622495 -0.19318033334678258
0000c0 e7 7a bd 93 4b b9 d7 3f f6 ab 65 8d bd 8c a9 3f
       0.3706845228934256 0.0499018893341016
0000d0 8a e2 dd 7c 68 7c e6 bf 6a e4 41 da 69 30 f2 3f
       -0.7026865423968769 1.136819698875366
0000e0 fb 45 7c 31 cd 57 fc bf ad 4d f3 eb c4 06 c0 bf
       -1.7714359219575033 -0.12520658036247082
0000f0 16 85 3b 65 3f 5e ac bf b6 d3 6d d0 97 1f da 3f
       -0.05540655241726193 0.40817828516383814
000100 09 a7 b9 03 35 92 c4 bf 7a 72 27 17 1a f1 b2 3f
       -0.16071188623327995 0.07399142327580846
000110 fb d7 ae 70 3e b1 e0 3f 4d 99 d7 4d d3 56 b1 3f
       0.5216362191047205 0.06773110056346816
000120 43 cc fc 11 a1 27 f0 3f e1 66 0a 52 eb b4 c7 3f
       1.00967509294857 0.18520871644869089
000130 cb 4b 72 54 94 bc cc bf e6 07 97 d2 06 43 ae bf
       -0.22450498698580498 -0.05910512276342654
000140 d0 fc f3 c6 b8 5c 04 c0 c4 da 6f 8d 44 fa e5 bf
       -2.545274309464368 -0.6868002664985728
000150 15 3b 35 f5 ca b6 9f bf c1 a5 28 c0 b6 64 c4 bf
       -0.03097073670988511 -0.15932354338410273
000160 f1 ff 41 94 06 59 e3 3f c7 be 50 5c 80 92 bd bf
       0.6046173949871428 -0.11551668409151282
000170 eb d8 ec 5f 81 32 e4 bf a9 bd 53 a2 56 1a e0 3f
       -0.6311652062929886 0.5032151384784146
000180 61 76 4c c3 e6 6f e3 3f f8 b5 af 86 ed 1f c1 bf
       0.6074098410060281 -0.13378686024172715
000190 b2 33 66 b0 44 a8 e7 bf 09 b5 da c9 a3 f3 c8 3f
       -0.739290565995921 0.19493529659431655
0001a0 94 d7 0d 6c 4c e6 f1 3f 3d 9a bc fc a7 3b 05 c0
       1.1187252255308282 -2.654129004007045
0001b0 3a 04 e3 58 f8 e6 e6 3f b3 84 f6 01 f1 88 c1 3f
       0.71569459305477 0.1369916209778573
0001c0 d1 cd 52 b5 b2 76 d8 bf 8c f9 6d 23 a4 fe c9 bf
       -0.3822447558152052 -0.20308353166542437
0001d0 15 9d ae 5f 46 c5 d9 bf 19 98 77 81 d2 aa e4 bf
       -0.4026657041926723 -0.6458523300796087
0001e0 41 bd d9 3e e5 02 d7 3f d2 7f 58 ae 21 7f d8 bf
       0.35955172670124474 -0.3827594950289469
0001f0 37 1a a9 d4 a6 d5 c2 bf af 12 1e cb c3 07 96 bf
       -0.14714513191047882 -0.021513995430285145
000200 f5 dd 90 d1 9a 3a e4 bf 75 ef 45 81 a7 8e bf 3f
       -0.6321539013942458 0.12327048212131138
000210 da a1 41 9e 5a 58 90 3f e5 5b 60 7e 82 1c c9 3f
       0.015962043675615913 0.19618254824373973
000220 62 c7 27 d8 6c 74 e7 3f 56 20 23 67 76 51 2e bf
       0.7329620572838673 -0.0002313096079602529
000230 f9 19 19 84 d8 d8 d6 bf e5 b9 1f 7b b1 f4 c7 3f
       -0.35698521518898435 0.18715494644079836
000240 42 85 a5 ef b3 3a d0 3f 81 3b df 1a 60 0c bb 3f
       0.2535829391764147 0.10565758377127389
000250 a9 fd 18 b2 72 78 ec bf d7 e2 89 3d 1b c0 ff bf
       -0.8897031286687042 -1.984400978455758
000260 12 e5 d4 98 eb db e3 bf 64 78 eb 57 22 b5 a4 3f
       -0.620595739840754 0.040444443924329915
000270 88 fe ea 50 52 c6 ae 3f 47 82 c7 8d e2 19 d9 3f
       0.060106823327712056 0.3922048935474191
000280 7e 1b ef 40 ae b1 00 40 bc df e3 e2 6c 46 ee bf
       2.0867581437082086 -0.946096842903891
000290 82 b6 64 b2 21 bb de 3f 2c a0 49 e2 23 f5 e5 bf
       0.4801716081736701 -0.6861743373565381
0002a0 d6 95 92 c4 fe 30 ea 3f 2b a7 6f 49 09 37 d3 bf
       0.8184808577831812 -0.3002341477537011
0002b0 ff 6c 8b 90 f0 65 cc bf b8 3e 09 1c d8 47 84 bf
       -0.22186095292895655 -0.00990265689429691
0002c0 bf 2c 9f 76 44 c1 e7 3f 25 d9 66 3e e0 91 b0 3f
       0.7423422161895344 0.064725890383532
0002d0 eb 26 4d d3 51 30 f9 3f 89 ab df 37 ce f2 ee 3f
       1.5742967847785916 0.9671393481524869
0002e0 b6 fe f6 da 9d e9 d2 3f 9f 76 b8 fc 30 03 c8 bf
       0.29550882705005266 -0.18759739246245474
0002f0 7c e2 c5 b2 2e 7d e1 3f a9 51 5d a8 99 e1 c4 3f
       0.5465310565624146 0.16313477250026878
000300 53 6d 4f de c9 39 c3 bf e5 da 89 d9 b4 28 ce bf
       -0.15020106654160745 -0.23561726209637537
000310 45 32 fd a3 7b 32 c8 3f 92 97 e4 ce d6 e9 e2 3f
       0.18904061801221608 0.5910448113324824
000320 1e 37 b9 fa 9a f4 e7 3f a5 28 82 38 78 d8 c6 3f
       0.7486090561812693 0.1784811283035356
000330 1d a6 a0 aa 48 22 e8 bf 6a 8f e9 3a f7 dd b4 bf
       -0.7541850407189404 -0.08151192844667113
000340 ed d4 1b b7 29 e4 c1 3f 97 78 be b0 3a 9c c3 bf
       0.1397754806600128 -0.15320523862914534
000350 25 12 1f 75 75 ea 03 40 b4 f5 70 0f b4 9d b3 3f
       2.4894818449122504 0.07662511231406804
000360 af 43 6a 92 3b 1c 05 40 68 bc 04 3d b2 b1 c8 3f
       2.638785499446804 0.19292285899561823
000370 cd cc c4 53 9f 74 c4 bf 26 93 1e d9 10 d5 a6 3f
       -0.15980903234740254 0.0445943131483431
000380 e6 af 7e 64 66 60 d1 3f 52 4b 45 c2 f5 64 db 3f
       0.2715087872882108 0.42803710910555026
000390 fc 18 11 2e 02 c5 c9 bf 3c c7 ac 24 e8 43 b7 bf
       -0.20132472276072366 -0.09087992568381947
0003a0 b4 99 d7 ff 1e 27 bb bf 67 bf 73 3d bc 35 bc bf
       -0.10606569048068232 -0.11019493580147142
0003b0 a7 44 dd 24 b0 86 de 3f c7 12 79 d8 ee da de 3f
       0.4769707069400035 0.48211260929046457
0003c0 28 df c4 fb f0 38 f4 bf 94 d0 fe 58 a1 83 d1 3f
       -1.2639016947486628 0.2736590737433826
0003d0 90 ca 87 e4 87 df d8 3f 3a 1a ba 5b c9 85 da bf
       0.38864323918748145 -0.41441568334304046
0003e0 4c 5a 16 34 7d 60 d2 bf e3 f9 78 db 18 93 fa bf
       -0.2871392258324803 -1.6609123776576034
0003f0 bb 3b 17 8c 3b bd f1 3f 14 2c ac 40 91 19 ff bf
       1.108699366788399 -1.943742039324893
000400 ef 11 52 d1 e2 7e e3 bf 93 40 dc a5 04 2e cb bf
       -0.6092390144627283 -0.2123418626656571
000410 49 b5 23 ec dd 05 de bf 88 f5 43 02 0e 76 d0 3f
       -0.46910808620926453 0.25720548840748636
000420 02 41 ad 77 3c ee c0 bf 63 a6 a4 e9 e0 c0 f0 bf
       -0.1322703918799633 -1.0470894934354866
000430 f2 10 7e c6 57 aa f1 bf 9e 3b f6 cb 60 96 d2 3f
       -1.104087615357511 0.2904283515753664
000440 60 7b 69 c5 62 b8 ee 3f 49 d7 dc 57 f3 b0 f0 bf
       0.9600080352500804 -1.0432008201728016
000450 fe ad f6 2d 51 8d df 3f e0 6a 43 6e 45 94 b5 bf
       0.49300031174308845 -0.08429368917442615
000460 06 d8 27 ea 59 75 b9 bf 2e 17 1e 4c 84 ce fe 3f
       -0.09944688765230589 1.9254191373197034
000470 8b a9 32 60 48 39 ca 3f ec 64 bb fa 8d 39 aa bf
       0.20487312981761038 -0.0512203568047854
000480 d6 b2 82 65 7f a0 f2 bf e2 33 da 5c 58 aa 9c 3f
       -1.1641839947944184 0.027993565242059655
000490 a6 08 d7 ac 0d 71 c1 3f e5 26 0d dc e6 6d b7 bf
       0.13626261653377475 -0.09152071831081406
0004a0 79 fb 11 5a 83 ac fb bf da 92 94 4a 70 68 dd 3f
       -1.7296174543732532 0.45949942858923765
0004b0 26 3b 7a 3f ff f6 a8 3f a8 ff 22 73 e1 ee b4 3f
       0.04875943803664588 0.08177002964930458
0004c0 11 af 82 8b e9 19 b1 3f 4c 69 3e a8 0b 2c 9b 3f
       0.0668016400911109 0.026535207885538356
0004d0 bc 09 b6 8a 84 92 d2 3f 8e ce b9 62 c5 6e cf 3f
       0.2901927332497072 0.24556796379657836
0004e0 a4 61 2a d9 3b f8 f2 3f 2c 12 63 2e d3 d0 be 3f
       1.1856039507893934 0.12037391550536175
0004f0 86 b1 0b 22 31 ad 9f 3f a0 86 6a 07 86 42 d9 bf
       0.030934112265570878 -0.3946852753088965
000500 65 ac 63 5b 00 ad fd bf 2b 31 36 2d 30 ec aa 3f
       -1.8547366685768563 0.05258322288418279
000510 9e b5 95 81 c1 31 d6 3f b2 4d 0c e2 2a c5 db 3f
       0.3467868581272685 0.433909149885234
000520 97 aa 86 d3 12 07 d8 bf f7 60 03 18 a2 e8 b1 3f
       -0.37543173462715046 0.06995595060596203
000530 4d 3c 2a 8b 98 43 dd 3f 86 65 1e 37 f6 0f c8 bf
       0.45725072470026334 -0.18798711482376634
000540 d9 86 d8 dc 63 20 f2 bf 05 ab 8c be 8c 61 be bf
       -1.1329077364720688 -0.11867599155509019
000550 2d 92 b9 37 89 f5 ee 3f 66 ed 1e 13 ce a5 f0 bf
       0.9674726570488638 -1.0404797312647474
000560 f1 ba 8c b4 b5 15 d1 bf c5 e2 43 af 84 6f a5 bf
       -0.26695006019410444 -0.04186644210307614
000570 16 1e 62 4d 35 8d dd bf b2 be 25 d4 7a 01 d8 bf
       -0.4617436652847301 -0.37509031980060137
000580 6e ed a4 9f 27 d7 fa bf d7 b2 b4 fb 7d 6f e2 3f
       -1.6775280223945077 0.5761098781709632
000590 27 4e 6c 5b ab c9 bb bf 7b 21 d1 77 bb 1b b7 bf
       -0.10854598028191074 -0.09026691127031043
0005a0 c8 51 71 72 c2 ad c4 3f 60 0d 34 d0 d3 fe c1 3f
       0.1615527209093115 0.14058921495607546
0005b0 96 5f 40 ce 53 c1 f3 3f 73 06 d1 1d 3e 6d a5 bf
       1.2346990639398192 -0.04184908021899227
0005c0 5b 13 d1 f4 99 0f d7 3f 1a 6e a7 6a 93 48 cf 3f
       0.3603272333896734 0.24440233905521397
0005d0 95 57 a4 48 82 ba ed bf b9 4a c1 17 77 ae f2 3f
       -0.9290172022617634 1.1675940444880963
0005e0 82 e7 0e c4 7d 24 ec bf ee e8 27 a2 26 8f d1 bf
       -0.8794545010816679 -0.27436223826920425
0005f0 28 ec 48 ad 20 3c c1 3f 6a 82 08 fd 15 33 e2 3f
       0.13464745007681356 0.5687360708289593
000600 b6 03 b0 fe cd a8 d0 bf 92 d5 cf 44 07 2b a7 3f
       -0.2603030192549868 0.04525015559185443
000610 b9 f9 70 4e bf 24 b9 3f ef 01 64 1b c6 c0 b6 3f
       0.0982169691569429 0.08887899559704925
000620 2a 21 34 05 d2 1a 01 40 c2 16 c8 49 bc 51 cb 3f
       2.138095894482963 0.2134318695317941
000630 43 88 1c a6 b3 37 e1 bf 32 52 af e5 45 00 d1 3f
       -0.5380495304455127 0.26564166479264195
000640 71 44 74 b8 d6 f4 ef 3f 3f cf 5b bc ef 27 dc bf
       0.9986375429745192 -0.4399375285568005
000650 be 0e 58 07 e0 fc d5 bf 01 3c 85 c8 d7 64 e7 3f
       -0.3435592719763284 0.7310599247374513
000660 7b 2f 26 e1 ad 08 d2 3f 53 01 b3 47 f4 2b 05 40
       0.2817797373506818 2.646462021017365
000670 19 ce fa 1e 25 47 c7 bf 14 f4 06 6d 75 ea f4 3f
       -0.18185867321663876 1.3072408923028478
000680 12 7d 22 5b f6 8d d8 bf 6d a6 18 87 ba fe d3 3f
       -0.3836646928775319 0.312422401361437
000690 ea c5 90 f1 fe f0 da bf b4 27 ac 68 2c 43 cd bf
       -0.42095922079451376 -0.2286124716850374
0006a0 45 4f d9 22 b7 67 e7 3f 62 c3 e8 ed 48 6f 92 3f
       0.731410568298522 0.018002643128230196
0006b0 f2 15 0b af 07 ed dc bf 81 c7 40 e3 b5 35 b0 3f
       -0.4519671639830839 0.0633195571724894
0006c0 3d 36 c7 14 92 e9 d3 bf d5 85 92 f6 7f 4d f5 3f
       -0.3111310198699789 1.331420863316784
0006d0 2b aa f9 ef 98 07 e7 bf e3 46 9d 92 78 bf f0 bf
       -0.7196774184242875 -1.0467458464740325
0006e0 55 32 c5 59 e6 0a dd 3f 81 58 ce c7 6a c1 ce 3f
       0.4537902714407996 0.24027762180475423
0006f0 61 f2 78 2b ce bc e0 3f c7 14 b1 74 9e 4d cb 3f
       0.523047528178335 0.2133062429221921
000700 f7 5f 00 cb 31 73 f6 3f 60 89 e6 64 3e 92 cc 3f
       1.4031236581558895 0.22321300436767455
000710 e2 8d 65 9a 32 1b c1 3f 33 6c e7 85 52 76 bd 3f
       0.13364250697041685 0.11508670586719986
000720 43 90 54 ca 74 3f e1 3f 90 0f 03 e0 d3 b8 c5 bf
       0.5389961196674523 -0.16970299184879112
000730 ea 1e f3 54 59 a6 ca bf 38 47 13 01 21 c3 6f 3f
       -0.20820156715330224 0.003877224408463411
000740 a9 06 79 8b 4b 82 d3 3f 23 6e 88 28 a2 37 b4 3f
       0.30482758160006057 0.07897389878819942
000750 52 67 d8 ef 51 16 f1 bf a4 93 37 2a 2e 51 00 c0
       -1.067949234863097 -2.03963883382899
000760 59 50 8d 9a c5 20 f5 bf af 4d 07 d6 c3 2c d8 bf
       -1.3205009495914253 -0.3777322378275256
000770 3c 02 37 27 41 0d c7 3f 3b 93 31 ea b2 dd 98 3f
       0.1800919953802963 0.02428321413426036
000780 0c 82 b9 25 85 52 e3 bf c6 d2 ce 30 8d a9 d8 3f
       -0.6038232552346599 0.3853486038818058
000790 85 0d a2 55 90 ac b4 3f 2c 65 2d 37 26 e8 c6 bf
       0.08075811472558854 -0.17895963377194712
0007a0 fe e6 4f 3d 5e 43 e4 bf 1f ec ab 38 b2 27 b3 3f
       -0.633223647833091 0.07482446559508603
0007b0 39 96 29 80 e4 04 c0 3f fe d2 25 c9 cb 40 d2 3f
       0.12514930971080832 0.2852048363049987
0007c0 4e 6b 62 87 a2 ab ee 3f 8f fd 99 8a f4 e8 f4 bf
       0.9584515232303177 -1.3068738378641205
0007d0 dc c5 96 e9 d8 2e fe bf 08 41 35 60 fe 50 fb 3f
       -1.8864373325890176 1.707273841679184
0007e0 f5 b1 4b bf 21 cd bf 3f 9c 95 ea 31 44 3d c9 bf
       0.12422381325058736 -0.1971822017414241
0007f0 99 3d 59 bc 7b 62 ea 3f ae 8d 0a aa 38 bd fc bf
       0.824521892422058 -1.7961966173396422
