src/neural/mnist/layer_4_weights.npy (npy, 2048 bytes, 1 tensors)

array f8 [10, 24]
0	0xbffc670ac0191416	-1.775156736738841
1	0x3f99734301e7dddc	0.024853751174274893
2	0xc0064b3f5f6c58f3	-2.78674196767235
3	0xc0079d4db0d52577	-2.9518083396002868
4	0xbfe205f2087b53e2	-0.5632257619532732
5	0x3ff846618e49a0a4	1.517182880221335
6	0xbff6fc2d3d10bc1c	-1.43656658033047
7	0xbff85d32bbd8f389	-1.5227534616271632
8	0xc00510381c27085c	-2.632919521275694
9	0xbfff928c607a0b6a	-1.973278405058148
10	0xc00139cdbe729bd2	-2.1532244566655914
11	0xbff0b3fb087b2b65	-1.0439405757230926
12	0x4002ab274eb912c8	2.33357106687831
13	0xbfe76fe084c50904	-0.7324068635137171
14	0x3ff309457e49ba4b	1.189763539612289
15	0x3feb646c6ce1a02d	0.856008732470405
16	0x3fa084e6a74f7dd6	0.032263954089781485
17	0xbff56fc6bffbde11	-1.3397891520852492
18	0x3ff373708b23ded1	1.2156835017357717
19	0xbff4a591ff111831	-1.2904224360986627
20	0xbff37429a3385ae8	-1.215860021189366
21	0xbff782d82d982825	-1.4694444447545802
22	0x4001ff1960f16995	2.249560124747584
23	0x3ff00edd4e919942	1.0036290234653085
24	0x3fe9172a6e49ffa3	0.7840778497775215
25	0xc004012c9ffbe6c0	-2.5005733965634533
26	0x3ff06b2fa4f0f088	1.0261684840216123
27	0x40091f4467ef3e10	3.140267192829704
28	0xc001390f781e5a37	-2.152861536432535
29	0xc00ed3f0e3192705	-3.8534867994357023
30	0x3fe29c1d5230255c	0.5815569501147979
31	0x3ff3643c930b3370	1.2119718307396532
32	0x3ff59dd2ef090340	1.3510312402069786
33	0xbfe3f842cb8d73b7	-0.6240552878986055
34	0xbfe1db089273c56b	-0.5579874859233035
35	0xbfed2eb70190a67d	-0.9119524984900661
36	0x3ffeb67ce97017bf	1.9195527189890382
37	0x4013aa73e362d350	4.9164577035015355
38	0xc0018a23b86c92f7	-2.1924509437689
39	0xbfe33267d4288ce6	-0.5999030250281094
40	0xc000591ad384cbcb	-2.0435081982518333
41	0x3fd2a53c2b3fa3c4	0.2913351461743867
42	0xc000d90f1b2e9245	-2.1059858440005734
43	0xc000f7276d52183e	-2.120680669849235
44	0x400956db6be19cb3	3.1674107006288863
45	0xbfe603c059285320	-0.6879579297406941
46	0xbfe2a6579ed42d90	-0.5828054525494952
47	0xbff8cb80d45e386e	-1.549683408320131
48	0x3fe209660820bad8	0.563647285341939
49	0x40029949045d8627	2.3248463002244253
50	0xbfff9438750df6c4	-1.9736866543238856
51	0x3ff22b40e459479c	1.135559932696629
52	0xbfe4a0a5fbc3e565	-0.6446103970803675
53	0x3fd5305b8bee884e	0.3310765139123121
54	0xbf9663df6e94d4a2	-0.021865359424925963
55	0xbfe6b24f650e4e80	-0.7092663739917526
56	0xc00660e3c4180573	-2.797309429152557
57	0x3fc1ec4ae7ef3904	0.1400235779278277
58	0xbfbdcb81280464ad	-0.11638648249608492
59	0x3fe39e1e3c78ba6c	0.6130515271268684
60	0x3fe3a71c3d0ac4d5	0.6141492073276377
61	0xbff95fbe471beabb	-1.585874822396973
62	0xbff377e87f9069e6	-1.2167744620297696
63	0xc0094046adcc5cdd	-3.156384809302479
64	0xc00340cc4b397c08	-2.4066396595876576
65	0x4007ea09f9d0a646	2.989276839904764
66	0xbfe55410e20c8dd1	-0.6665119566936771
67	0x3febe912e50831c1	0.8722013924867086
68	0xbffa1108d5fa4a4f	-1.6291588171485676
69	0xc0046bf150baf6a4	-2.552706366258308
70	0x3ff0501e30921c5b	1.019560041169618
71	0xc00405a948c75367	-2.5027642904118923
72	0xbffca70e49e6a7cc	-1.7907851111181001
73	0x3fea130fef3897c4	0.8148269340788308
74	0xbff535a2dd3cc40b	-1.3255947725376724
75	0xc0003611d3e3ca62	-2.0264011911288415
76	0xbfcd533decc2d658	-0.22910284100150835
77	0xbfc9be29486a4c61	-0.20111576114558985
78	0x3ff40742f67a4b99	1.2517728450809271
79	0x3fd25ccbca524703	0.2869138217730411
80	0x3fe65e7043036b05	0.6990281399588133
81	0x3fe3b54459e93c9e	0.6158773189616971
82	0x3fff71174a74bd31	1.9651101025045359
83	0xbfec5ce0b021fddd	-0.8863376083463056
84	0x3fa12526df62eb4e	0.033486571091506975
85	0xc00586f3bd781cbe	-2.6908945848732335
86	0xbfda5371d63efcd3	-0.411343058800367
87	0xbfec7aebc4747a9b	-0.8900050007831227
88	0xbffe47a9937c87c9	-1.8924957047643025
89	0xc006ede3ed2c9f3b	-2.866157391475921
90	0x3ffc2c35360c185c	1.7607929335804533
91	0xc00817cbf830d146	-3.0116195096872245
92	0x3fe92e4767300212	0.7868992820149876
93	0xbfef57627859e2e2	-0.9794170714004304
94	0xc000384866968e40	-2.02748184344253
95	0xc007dec75786b195	-2.9837786519985436
96	0x3fd178332214eecc	0.2729614098386548
97	0x3fb0cb5d431bac46	0.06560309303647313
98	0x3fcf2e52cd07d28f	0.2436011792302861
99	0xbffe839daa33e8c3	-1.9071327827974052
100	0x3ffb466b948378dd	1.7046924401579908
101	0x3fca28fa90d2277a	0.20437557288488134
102	0xc00127afc3ae035c	-2.144378212688407
103	0xc005f615ad381e84	-2.745158532405016
104	0xbff15495054a1468	-1.0831499296775977
105	0x3ff624f96c8226c2	1.3840269316300895
106	0x3fd5cf0d6b16b246	0.34076247651936276
107	0x3ff776e429e16786	1.4665261875111084
108	0xc004764315fbe922	-2.5577451436521565
109	0xbfed2eaa07abcd6b	-0.9119463109804377
110	0xc00a4d03a6d3829c	-3.2876046212480343
111	0xbff296d6747a5373	-1.1618256139674628
112	0x3fee05100daf3aa0	0.938118006446377
113	0xbfdbdeb98a2fb89f	-0.4354690408207577
114	0xc0027b244674e7ff	-2.3101277832438423
115	0xbfede85e6d96c6a0	-0.9346153393182313
116	0xbfa422f50211bfd9	-0.039329201223949624
117	0x3ff08d00b159602e	1.0344244888019705
118	0xbff5bb1848a815a7	-1.3581774557254478
119	0xbfec4393f49a1da3	-0.8832492616065121
120	0xc00f2db5dab72afa	-3.897319515909996
121	0xc00778e8197d5998	-2.934036444795492
122	0x3ff1a62793978c95	1.103065086871344
123	0xbfe2fa89c4b507fb	-0.5930832712112982
124	0x3fe33e10ad2506c2	0.6013263112765446
125	0xbffce05e78366854	-1.8047775932123118
126	0xbfea3ffeeb4c384c	-0.8203119846018665
127	0x3fc77abb4e44df70	0.1834329731152553
128	0x3ff57a012cd1257f	1.3422862768805712
129	0x3fe932082c8996ba	0.7873574132797423
130	0xc011b25271e3b176	-4.424142627260485
131	0x3fe79f05c4d8656f	0.73816193052623
132	0x3fc6c3c13e74e917	0.1778489642109171
133	0xbfe849116162b2cd	-0.7589194204388946
134	0x3fd4b420c688e793	0.323494142419457
135	0xc0005b06ba5c9717	-2.0444464263445172
136	0xbfd74a014d311561	-0.3638919118714821
137	0xbfc9c12f5b318c73	-0.20120803788003946
138	0x400797664d90b071	2.9489255962162635
139	0xbff4c1d11fbdc185	-1.2973185768024404
140	0x3fda73f202b7a912	0.4133267427956905
141	0xc0014a71bda0c48d	-2.1613497557341987
142	0xc0026df99c969e67	-2.3036987527337263
143	0x3fec09b4204c77c0	0.8761845236619976
144	0xbfe37849c2dcb266	-0.6084336095714888
145	0xbfde152ba23ab97c	-0.4700421413680471
146	0xc0011227f4a9e467	-2.133865271982859
147	0x3fff6590edee13c3	1.9622964185848424
148	0xbfedf251503f084e	-0.9358297889050478
149	0xc001c47b96551088	-2.2209388489446305
150	0xc0029d1d4126fea7	-2.3267159547829865
151	0x40045c19058df308	2.544969600099993
152	0xc00498b520b94d08	-2.5745642239140842
153	0xbfddf4973484014b	-0.4680536282394498
154	0xbfdbb2771a6f045d	-0.4327676542416777
155	0xbfc4411782552b69	-0.15823644508267456
156	0x3ff23043380468e4	1.136782854859626
157	0xbff121e1cb015c13	-1.0707719735999077
158	0xc009221204959af1	-3.1416359289317985
159	0x4003bcb964fe7bca	2.467150486961576
160	0xc00813358fb37c16	-3.009379503884257
161	0xc001092fc18e472e	-2.1294856187386335
162	0xbfcc905a994e60d8	-0.22315533147480582
163	0xbfdd7fae4c36f65d	-0.46091802065698123
164	0xbfec7567382af0e2	-0.8893314454103598
165	0x40015c8b2be35b37	2.170187323451866
166	0xc00812cd5482250f	-3.0091806986062077
167	0x3ffc273a43b15a63	1.7595770496606284
168	0xbff347b88899bd76	-1.205009969325912
169	0xbfefd19cd9998c2d	-0.9943374872203826
170	0x3fd922b40a7c90d6	0.39274312042313164
171	0x3fc563b1f203660a	0.16710495297483902
172	0xbfd273aaff691d8e	-0.28830981199686156
173	0x3fed942b9c786117	0.9243372016963204
174	0x40013c21d699e3b0	2.1543614164079017
175	0xc005d4072877238e	-2.7285292779310515
176	0x400486947949c33d	2.565712878764684
177	0xc00b0520a5a19c68	-3.3775036754555465
178	0xbfc28bb497b94a38	-0.14488847168338892
179	0xbff13f2118bef61d	-1.0779124228132624
180	0xc0021fafae930008	-2.2654718054400327
181	0xbfe84b56f4b8de42	-0.759196737263615
182	0x3fb2886dd517f9ca	0.07239424183351342
183	0x3fe839306274f26e	0.7569810793862197
184	0x3ffa8cc9e9786037	1.6593722457819362
185	0x4003f90e459b741f	2.4966092527452157
186	0xc00672862abf2bd6	-2.805919965704997
187	0x3fe9755446d7ec26	0.7955724128399921
188	0xbfd909046f7f2f6e	-0.3911753739200695
189	0xbff4f17227755bf6	-1.3089467564911934
190	0xbffa24d4fc4bd320	-1.633992181331628
191	0xbfeb52abe4325cec	-0.8538417298285856
192	0x3fe9baae55edd43e	0.8040382078457993
193	0x3ff5fcc88fe913a4	1.3742147084715066
194	0x3ff179d30a81809a	1.092242280043172
195	0xbffdbfe0123c4f9f	-1.8593445503547412
196	0xc0067a7944f296d0	-2.8098016153843233
197	0xc0013a98ff6da9ee	-2.153612132581876
198	0xbff75f54e3318a42	-1.4607743143793788
199	0xbff2892e20f37bd8	-1.1584912573959993
200	0xbff00d63cf3d7af4	-1.003269013912072
201	0x3fcf50a84ac71f84	0.24464896823178262
202	0x3ffe55acdce04ac5	1.8959168079351667
203	0xbff01b3de32f51cb	-1.006650817337788
204	0x40031f00c743e819	2.390138203391882
205	0xc0068ede09d4f98e	-2.819759442150093
206	0xbff0b53c1cacc984	-1.044246780406497
207	0xc00668873f3dca93	-2.801039213250371
208	0xc0059592665b9a8b	-2.6980331417756296
209	0x3fc79622e166df16	0.1842692947955064
210	0x3fc08bd331993ecd	0.1292671196156249
211	0xc00011a8f0be0e4a	-2.008623009491008
212	0xc00e31f085d1dc8b	-3.774384541956868
213	0xc00004d6437c9179	-2.002361800421735
214	0xbff454d5ecb141f6	-1.2707118268773434
215	0x3ffd48902bf4ddeb	1.8302156178523272
216	0x3fe96c4d6c14a8c3	0.7944705115271734
217	0xbfe0b63cd45d9b35	-0.5222458026663391
218	0xbff742164fe467a1	-1.4536345597066218
219	0xbffe37bfe3ffea73	-1.8886107355343966
220	0xbfd87c55c67ae339	-0.38258880980315585
221	0xbfc422fa5538aaf1	-0.15731743966292513
222	0xc0053926682d707d	-2.6529052866808898
223	0xbff7f5347ed9ddf8	-1.4973645167464138
224	0xbff25d723cd67433	-1.1478140236352032
225	0x4009bfd551498d86	3.2186685896464864
226	0x3fcbe037b8e33b39	0.21778008010593355
227	0xc010a9a0f6f58ffd	-4.16565309404177
228	0xc00460ff93e4a8a5	-2.547362475791561
229	0xbfd11bc307d90d6b	-0.2673194481505649
230	0x40015cb2de48e97b	2.1702630392075526
231	0xbfe66664178663e6	-0.6999988994094763
232	0xbff3ad192ebbbd02	-1.2297603440782159
233	0xbfe92c4cf75054fc	-0.7866577940318673
234	0xc0067b446e355f6d	-2.8101891145742486
235	0xbfe3bc8f4952db19	-0.6167675430395746
236	0x3fec686fbe52066c	0.88774859592395
237	0x3fc6d0bfae55bf57	0.17824550640534184
238	0xbffca31affc5a179	-1.7898206702321586
239	0x3ff17e8bca9918a8	1.0933950342164653
