src/neural/mnist/layer_0_biases.npy (npy, 768 bytes, 1 tensors)

array f8 [80]
0	0x3fa3b3607904ba85	0.038477911732447224
1	0x3fa11f9a672fa615	0.03344423780056275
2	0xbfb2d849d0a5833b	-0.07361279815587533
3	0x3faba76273701e68	0.05401141795306047
4	0x3fa0dc55d591edf2	0.032931024857102545
5	0x3fae949d79faffef	0.059727593555635276
6	0x3f96eba697107383	0.022383311243277425
7	0xbfa456c16735a5a2	-0.039724391793082306
8	0xbf5ba3ce47d07628	-0.0016870035608528375
9	0xbf9154b75db9a8a4	-0.016924729438337352
10	0x3fa2a415c1a304f0	0.03640811909418484
11	0x3f9a29b45b9ee48c	0.025549715129930692
12	0x3fa1da8378dc8661	0.03487025118216703
13	0xbf9b6c9a73fef54a	-0.02678147633536313
14	0x3f972b3c434c758e	0.022625867469391596
15	0x3fa85f5b5440e985	0.04760251430021171
16	0x3f73cbd7e987c249	0.004833072096957888
17	0xbf613fb33a57d148	-0.0021055698914499744
18	0x3f62f9b7a50fe3e1	0.002316340142439519
19	0x3f8a1c5cc8e00921	0.012749409561369664
20	0xbf81c5cecf8ce7ea	-0.008678069790779081
21	0xbfa254afb700441d	-0.035802355851167735
22	0xbf970720c154209a	-0.02248812847122448
23	0x3f84466319b72117	0.009899877760191118
24	0x3fa012cdc735722a	0.03139346176860543
25	0xbf9576b14015dbbd	-0.020960588013135373
26	0x3f65441b7ec49cba	0.0025959527030355563
27	0x3fb26431c67f3661	0.07184134575001046
28	0x3fa2166c0f752019	0.035327317129997655
29	0xbfac05cb0bec92a3	-0.054731698232250346
30	0x3f8e4421979f935d	0.014778387489010997
31	0xbf794c189ee4f21f	-0.006176086592230705
32	0xbf8d783aec81d7d7	-0.014389477102877564
33	0x3f8e12dbb4fc1687	0.01468440671988992
34	0x3fabf0f6736752d7	0.05457277449355551
35	0xbf9c8b3c005317bb	-0.027874887008486598
36	0x3f860a143ce4727c	0.010761411770141331
37	0xbf9ca08211a9d470	-0.02795603974160027
38	0xbf9a6eac5b7c7be3	-0.025812810024145604
39	0xbfaa70abd0526ad9	-0.05164086263649432
40	0x3f60f5e09120554b	0.0020703683922060115
41	0x3fa9786e3f7ef66c	0.04974693799111382
42	0xbfab29314ee4c68c	-0.053048649674008436
43	0x3fa15f587a7681ac	0.03393055434139866
44	0x3fab4a80aec1b478	0.05330278523693094
45	0xbfa18a5fe2b573b2	-0.03425883905831685
46	0xbf9ca087e4e08ccc	-0.027956126541664614
47	0x3f9049a09b17a81b	0.015905866113747984
48	0x3f73c7614ad752d2	0.004828815506205246
49	0xbf9328c2f628baee	-0.018710180544242165
50	0x3f72974a7d0d8462	0.004538813563017193
51	0xbf8e91dce185c94e	-0.014926648743060735
52	0xbfa0328b03c6acf8	-0.031635612688967585
53	0xbf905468204b7c96	-0.01594698617088549
54	0xbf85ce81bf707309	-0.010647786764872007
55	0x3f710fb3d4a80942	0.004165365661267297
56	0x3fa215226893ffc2	0.03531749273861308
57	0x3fa5cd216ea66ffb	0.04258064723691742
58	0xbf7639e025930aec	-0.005426288197841283
59	0x3fb24ca427817a9d	0.07148195232864869
60	0x3f9aa982b2946198	0.026037256383547452
61	0xbf763334ffe3a76b	-0.005419928578911252
62	0xbfad3690f6a14ca2	-0.05705693255063095
63	0xbfa8f01b08f56668	-0.04870686039312205
64	0x3fb0fd86f58f5015	0.06636851782906235
65	0xbf9f5d95140a8130	-0.030630425785262705
66	0xbf9bcf97c9d9de33	-0.02715909165860193
67	0xbf910f29c231fda7	-0.01665940521024614
68	0xbf8020c5fcef0787	-0.007875010281967366
69	0x3fa1293c5dfcc402	0.033517729256693954
70	0xbfad019d149bcee5	-0.05665293575830591
71	0xbfa29fbdb9e409e4	-0.03637497800993453
72	0x3f9f34c2794cd510	0.030474699643680714
73	0xbfb7686ffcf10054	-0.09143733907058166
74	0xbf94b9e2bba7e554	-0.020240347579578113
75	0xbf91f73775711053	-0.017544619124479088
76	0x3f5d72bbd88201f6	0.0017973741942399735
77	0xbf99c064bb7d6939	-0.02514798540446714
78	0x3f927ccbddab11e4	0.0180541852994497
79	0x3f8123a3caf146c6	0.008368758803189446
