src/neural/mnist/layer_0_weights.npy (npy, 501888 bytes, 1 tensors)

array f8 [80, 784]
000000 68 d4 58 7d 31 29 a8 3f 5b 96 3b b4 69 bd 87 3f
       0.04718928008188855 0.011591745198028016
000010 32 b1 43 5e aa ed a1 bf e5 5c db b9 0f 3f a0 3f
       -0.035016368872535245 0.03173112052689379
000020 81 f4 b0 ad 90 4c 7b bf b7 78 68 0b cd 9e a3 bf
       -0.0066648150923899205 -0.038320930140103675
000030 75 dd cb 51 41 be 42 bf ef 12 89 04 4d bb 92 bf
       -0.0005719965880350135 -0.018292621042081455
000040 ac f5 7a 33 a1 79 6e bf 93 bc 94 d6 89 51 9d 3f
       -0.0037201069315801662 0.02863135692785741
000050 71 05 fb 96 52 69 a2 3f 54 85 42 35 05 90 a4 bf
       0.035959797792666566 -0.04016128802437416
000060 d0 2f 88 fb 5c 09 97 3f 75 50 62 16 ea 42 9b 3f
       0.022496655323308634 0.02662244569417323
000070 16 7a 44 9b 40 d4 96 bf 64 2f 75 7f 0f ab b0 3f
       -0.022294053532386192 0.06511017667543012
000080 b0 87 81 52 fb f3 98 bf be 3a 22 a9 dd 5e a1 3f
       -0.024368216429486445 0.033926894088940326
000090 c8 d1 ec 21 86 3a 83 3f 97 c0 6e 63 89 5e a2 3f
       0.009388969335852773 0.03587750757958579
0000a0 92 3a d1 82 e5 92 ad bf 7e 43 d0 b4 24 86 9b bf
       -0.05776135656252736 -0.026878903900129363
0000b0 13 1d 9d ce d2 75 96 bf ad 2c f2 3b 23 4e a3 3f
       -0.02193383585043047 0.037705517833353276
0000c0 a3 a1 b3 c2 bb 42 a3 bf 17 cf 44 75 b0 78 a1 bf
       -0.037618510739608334 -0.03412391120437357
0000d0 27 b3 70 2f 83 5d 85 bf b2 25 84 55 78 0d ac bf
       -0.010432267079602276 -0.05479026836298874
0000e0 59 83 90 ac 7e 9d 8a bf 09 48 7c 2f 33 11 a5 bf
       -0.012995710030794848 -0.04114685015350978
0000f0 9b 12 49 2c 27 9e a0 3f 7b 41 2b 42 a5 db a6 bf
       0.03245661178201439 -0.04464451248861941
000100 60 4d 50 e6 f4 a0 a8 3f b0 cc 74 9d 22 ec a4 3f
       0.04810300170370385 0.040864068718656
000110 53 40 d7 1d 8e 9c 83 bf 9b 2d b9 1f 8c 0b 9b bf
       -0.009575948987645832 -0.026411237179031138
000120 1a ee e4 70 e9 d2 c6 bf 88 7e cb 11 83 67 a9 bf
       -0.1783115197412009 -0.049617858812550486
000130 4e fd 2c ef d0 63 bb bf 7e 87 74 51 5a 85 73 bf
       -0.1069918235707423 -0.004765847020537948
000140 d9 cc b8 89 b9 d8 a3 3f 9d 61 ce 27 aa 54 b5 3f
       0.03876285368132821 0.08332313033895962
000150 d5 a7 e5 ae 4a 06 a0 3f a7 55 b5 d5 fd 96 a7 3f
       0.03129800209974546 0.046073849046176556
000160 e2 ef 66 e5 ad 92 98 3f 6e 6b a7 fb 3f d9 9e bf
       0.02399703705462731 -0.030125617727985547
000170 5e 01 09 00 83 e4 92 3f 94 e1 e3 2b 0d 22 aa 3f
       0.01844982803072647 0.051041041953740734
000180 98 04 ff 0b a8 c3 9f 3f 95 4b 38 27 a7 42 97 bf
       0.03101980756014608 -0.022715198296349454
000190 25 f2 a1 c7 31 d3 7d 3f 44 ae b1 04 19 be 75 3f
       0.007281488850023031 0.00530824444568229
0001a0 a8 c5 39 a6 cc 6c 76 bf c1 45 ee 19 2c 71 8a 3f
       -0.0054748529542946525 0.012911171475738283
0001b0 22 60 b3 07 1a aa 96 3f 81 06 70 30 75 41 a9 3f
       0.022133261413586187 0.049327528155129315
0001c0 05 80 ae d7 c6 ca ae bf 75 92 09 e6 6a 3e 63 bf
       -0.060140813663792904 -0.002349098955436719
0001d0 ad 31 48 95 66 5d 81 bf ea 26 3f ce 2c 10 7e 3f
       -0.0084789289767507 0.007339644453119945
0001e0 e0 ed 4d ae 8a ca 9b bf f3 53 08 e7 94 5b 8e 3f
       -0.02713982285375305 0.014823115635445893
0001f0 37 ce b0 80 77 f7 a9 3f 65 dd ef 58 a0 a9 aa bf
       0.050716146907145924 -0.052075396400989495
000200 12 a8 a1 e0 fd 52 c8 bf 30 21 4c 86 c3 71 c6 bf
       -0.1900327059586862 -0.1753467946766789
000210 84 16 8e e8 74 63 c6 bf 21 db 92 77 a2 8b c4 bf
       -0.17491017680383802 -0.16051131094510487
000220 b7 b1 bb 06 ea 34 96 bf 6a 7b 48 4e c5 69 8b bf
       -0.021686226521454546 -0.013385335399161941
000230 65 1b 20 fa 2b fe c5 3f 59 ed cf dd 03 aa c8 bf
       0.17181920731692482 -0.1926884491984804
000240 8f be 1f 19 85 0d cb bf e2 24 90 e0 b0 c2 c4 bf
       -0.2113500950504101 -0.16219149556153584
000250 ec d4 b7 cf 52 57 ba bf 70 3b f1 38 fc 86 a9 bf
       -0.1028949505924463 -0.049857980681386915
000260 ec f9 75 6a b9 cc af bf 43 74 92 22 21 71 92 bf
       -0.06210879730769023 -0.01800967954169531
000270 7f cb 09 29 9b 5b 8d bf 71 23 e3 6a 45 3b 98 bf
       -0.014334881009949061 -0.02366360154045161
000280 0f 54 2e 9f ab e3 97 3f 1e 3a 16 92 54 29 9e bf
       0.023329431143412956 -0.02945453778880324
000290 0a 77 ec 20 40 f3 b0 3f 98 08 a0 19 30 a2 b7 bf
       0.06621170810509738 -0.09231854081739
0002a0 98 11 9f cd 1e 82 a2 3f 22 f8 d0 d5 6c b3 75 bf
       0.03614898929621119 -0.005298066270425424
0002b0 37 fb 4b 94 bf c8 a4 bf 42 37 12 83 9e 5e 8e bf
       -0.04059408841384598 -0.014828909277891381
0002c0 44 bc c1 1f 5a cc b0 bf 0d 2a 14 7f 01 1b a9 3f
       -0.06561816478073107 0.049034163248581654
0002d0 ab b9 4b e2 38 b9 bb 3f 3d 48 80 14 a5 f8 8d 3f
       0.10829501652526712 0.014634408653396597
0002e0 ed 9d d0 df 88 09 d1 bf a2 ad a3 e9 a2 b2 de bf
       -0.2662069497768858 -0.47965309921593235
0002f0 65 b6 3b a5 2c 1a de bf 94 07 90 e2 31 bd d6 bf
       -0.470347558365438 -0.3552975380445045
000300 98 d1 b7 11 bb ac c0 3f 17 da 62 12 10 82 da 3f
       0.1302713238252522 0.41418840213319313
000310 6b 4a 0d 6d 37 b9 cf 3f 7e 45 7e 1f bf 96 ce 3f
       0.24783985924530624 0.23897542035824054
000320 a3 99 9c 33 c3 7f e2 3f f2 ea 88 73 36 0f d0 3f
       0.5780960090676682 0.25092850954722146
000330 17 f6 80 57 ad 8d c0 3f 6a 8a a1 80 1a b4 aa 3f
       0.1293236424698285 0.05215533085062847
000340 ac e6 03 9e 2c 2c b2 bf b2 4f 2b ca ae fa a5 bf
       -0.07098654611390981 -0.04292818277249867
000350 de 43 18 9f d5 5d b3 bf a1 38 b1 94 2c 6a a3 bf
       -0.07565055021429098 -0.03791941943255606
000360 28 00 3b 1c ef a6 8b bf 26 89 46 02 59 bb a8 bf
       -0.013501995133424385 -0.04830434944894284
000370 3a de c1 68 81 7b 9e bf 48 15 f5 e4 ce ac 8a bf
       -0.029768011111143113 -0.013024917947982786
000380 91 5d de 85 a3 13 8d bf 25 eb 92 6a 84 60 92 3f
       -0.014197614214750217 0.01794630909419505
000390 3a 78 cc c6 5e e7 87 bf 7b 78 e6 08 61 e0 96 bf
       -0.011671772424559735 -0.022340313118200044
0003a0 e7 1e 21 0d ba 1e 91 3f 4f 69 8f aa 70 9f c6 3f
       0.016718775798181176 0.17674072578558728
0003b0 8d 7f 72 48 47 bc bf 3f 27 27 f5 11 59 2f c2 bf
       0.12396665114147094 -0.1420699441608175
0003c0 57 df b3 45 dc 11 b3 3f 0b 58 e5 ad f6 7a c7 3f
       0.07449127866482051 0.18344005099305635
0003d0 c5 62 35 97 26 f1 f1 3f cb 83 c5 2b b4 c4 f6 3f
       1.1213746935447244 1.4230233869386548
0003e0 cd be 3a 59 74 93 fb 3f f3 98 7a 63 b4 61 01 40
       1.7234996305013965 2.172707345179441
0003f0 a9 f4 bd 0f fe 04 f8 3f d6 e1 32 be 99 44 f0 3f
       1.501218854419941 1.016748183216
000400 66 d9 26 54 ff 99 f0 3f 0a c6 a5 d8 c3 c3 e5 3f
       1.0375970160653991 0.6801470977208635
000410 5d df 99 fd e4 08 f1 3f 0e 10 56 f5 74 6e a8 bf
       1.064671507481726 -0.04771771902872511
000420 16 26 6b cf 84 d4 9b 3f 0d 4f 8b 46 07 6e aa bf
       0.027177882346938707 -0.051620700227117046
000430 1d 8a ff a1 6a 8f 96 bf c4 55 15 8f 9a d0 9a bf
       -0.022031465661607286 -0.026186385138620386
000440 34 c6 22 7e 72 9e 91 3f e1 c8 d4 b4 e7 55 b2 3f
       0.01720599074241687 0.07162330784629801
000450 44 cf 45 67 07 19 9f bf 99 d7 b2 62 86 6c 97 bf
       -0.03036891525103093 -0.02287492730530225
000460 84 62 d8 b8 c9 af 5c bf 40 ef cd 7e 2c 23 70 bf
       -0.001750895494643385 -0.003939794359094695
000470 66 8a 43 0f 6c b5 9b bf ee 44 c3 e7 c0 7b b1 bf
       -0.027059257918958933 -0.06829457910795941
000480 a6 83 f6 35 b8 4a 61 3f 58 10 e0 4d e6 c0 d0 3f
       0.0021108243815465997 0.2617736588001711
000490 23 c0 f3 6a 96 b8 e4 3f 71 16 eb 20 08 aa e6 3f
       0.6475326622876348 0.7082558291373983
0004a0 74 ce 90 3a 7b 9f f3 3f d6 4e cd 82 10 1c 00 40
       1.2264358794899666 2.0137033671288505
0004b0 c9 ff 08 80 b3 11 0a 40 09 46 e3 b9 a7 88 09 40
       3.2586431505915 3.1917261621936217
0004c0 49 9a 2b 94 e7 13 fe 3f b2 3c 7c fc b9 77 02 40
       1.8798595226195565 2.308460209409156
0004d0 38 d5 3a d4 a3 5f ec 3f be 68 b3 76 16 8a f3 3f
       0.8866747994531243 1.2212128292799629
0004e0 56 24 00 6f 60 78 f3 3f 8a a9 0c 58 40 73 e4 3f
       1.2168888412436636 0.6390687675205282
0004f0 66 01 4b 37 ba 35 f0 3f 35 d5 72 53 71 dc f2 3f
       1.0131170425302911 1.1788190135678864
000500 78 f4 92 ab 37 3c ee 3f 34 52 d6 d5 49 a6 da 3f
       0.9448507643752597 0.41639943964517845
000510 70 21 77 08 0f 42 cc 3f 40 9f d5 d1 1f ba 7b bf
       0.2207659522375809 -0.006769298835344106
000520 ff 01 27 48 6a 30 c0 bf 57 47 9a 30 94 d3 85 3f
       -0.12647751353325984 0.010657460911975098
000530 a0 cf a9 92 ab d9 6d 3f 90 98 b6 79 bc 1f b0 bf
       0.003643832305266728 -0.0629842564727332
000540 e5 5b 5e 17 a0 ab 93 bf 9b 74 d6 e8 7f 56 a5 bf
       -0.019209386278443836 -0.04167556493050847
000550 8b c0 98 cd b8 37 b4 bf 33 c8 59 9a 1c b4 ab 3f
       -0.07897524852228537 0.054108518449439556
000560 80 1b 2d e7 29 2c ce 3f f0 5a d6 f6 74 4a e3 3f
       0.23572276866817887 0.6028389760056978
000570 92 f8 fb 25 e1 b6 f1 3f 56 ec 82 f7 60 ac f6 3f
       1.1071483119735928 1.4170846622862618
000580 3e 6f 62 c1 3b 41 f6 3f c3 11 f6 70 24 42 fc 3f
       1.3909261278231067 1.7661480343386848
000590 57 c0 0b 8a 47 fe 09 40 17 05 0f 00 6f 37 02 40
       3.2491598877750607 2.2770671848853783
0005a0 f5 75 8e 88 c9 8b ec 3f 23 53 47 d4 cb 25 e1 bf
       0.8920638720625776 -0.5358637949053427
0005b0 a3 66 ee 9f 02 39 fa bf c8 bb ba 35 e1 4f f9 bf
       -1.6389185187639803 -1.5820018862539076
0005c0 05 d5 26 eb 36 3c ea bf 57 2f d2 b7 29 0f db bf
       -0.8198504059606938 -0.4228004737021726
0005d0 39 bc 40 b8 91 3d 93 3f cd 9d 36 7d 26 b0 df 3f
       0.01878955542650493 0.495126364020021
0005e0 f4 96 0f 5c 5d 0b e2 3f 23 90 7f ac fe 3c e5 3f
       0.5638872907699963 0.6636956566912925
0005f0 24 95 97 84 95 8f e7 3f 4c ff b4 83 1d 45 c4 3f
       0.7362773503961404 0.1583592312908827
000600 7c a6 48 5b 11 50 c2 bf 3d f5 10 ee 37 ed ba bf
       -0.1430684753152497 -0.10518216669239151
000610 49 3d a6 bd 18 d2 a5 3f fe ed 63 11 4a 0a a9 3f
       0.042618535185392555 0.04890662634167241
000620 26 6a 2a a9 2c d6 aa bf d3 56 b3 52 c4 cb 9e 3f
       -0.052415271425349894 0.030074183986321067
000630 2d 01 54 97 14 b2 92 3f 0d 56 9e e0 21 50 b6 3f
       0.018257447944962358 0.08716022237634764
000640 ae d5 53 1f ea 72 d3 3f ec 39 5f 96 4a 2b e6 3f
       0.3038888269359984 0.6927845894768416
000650 00 af ea 6f 7a b5 f7 3f 08 c5 b2 85 20 2d f4 3f
       1.4818062183139205 1.2610173437681755
000660 c5 db f2 60 90 0a d0 3f 20 c4 ba 74 5f 8f e9 3f
       0.2506447741283718 0.7987515716432689
000670 2e 7e 39 83 0b 93 ea 3f f3 49 97 9b 48 cf f4 bf
       0.8304498255710706 -1.3006063535473202
000680 d7 40 8b 94 57 dc 05 c0 0c dd 13 cf 4c fc 0a c0
       -2.732588921069787 -3.37319337634438
000690 dc 63 09 81 06 4d f3 bf 2e d9 82 e2 c2 ec f2 bf
       -1.2063050308699905 -1.1828030441370845
0006a0 08 9f e9 fb 8e d7 fc bf 18 36 a1 01 5e 48 f5 bf
       -1.8026265945754307 -1.3301677764569657
0006b0 c4 8d 1a 19 03 9d ed bf fb 84 59 e1 46 f9 b8 bf
       -0.9254165163333075 -0.09755366327000907
0006c0 7b e6 97 98 5b 0c df 3f 06 e0 37 3c 2e 0e ef 3f
       0.4851292600793397 0.9704810310495311
0006d0 4e a5 16 7e 91 b4 ea 3f f0 45 1f c5 90 64 d5 3f
       0.8345420324959976 0.33426303148470904
0006e0 0a f2 85 07 e6 17 b6 3f 9e 95 be 75 a9 66 9b 3f
       0.08630216296837304 0.026758811770965722
0006f0 7c 8e 40 70 11 59 a2 bf cd c5 3d 7a 41 5d 91 bf
       -0.03583578582063482 -0.016957305036560833
000700 08 b2 33 97 0d 4f 91 bf 32 f3 be 96 c7 3c af 3f
       -0.016903126100190874 0.061010586883162424
000710 45 6a ba 46 fa 9c b4 3f b3 1c 7f 7c 16 31 b5 3f
       0.08052028872263246 0.08278027095285516
000720 f9 e1 3d 18 f0 49 d2 3f 00 55 1b 51 4a a1 eb 3f
       0.28576280944210414 0.8634387573353308
000730 d3 c3 83 20 9d 30 f1 3f 89 f4 6a 20 78 1d d4 3f
       1.0743685979943975 0.3142986599521654
000740 f6 0b 88 a0 a6 54 f6 bf 4c 36 41 70 ee d0 de bf
       -1.3956667204627116 -0.48150216066719476
000750 c9 c3 85 26 de 77 fc bf cc 05 6d 12 5e c5 fc bf
       -1.7792645935808074 -1.7981854171524558
000760 fb e9 ba 56 92 99 0a c0 ab 66 d0 0b 55 4f 0e c0
       -3.324986150340235 -3.7887364314054444
000770 4f c6 5f 8e cc d5 00 c0 93 14 93 8e bc ed f1 bf
       -2.1043940661409475 -1.1205411500280078
000780 43 9e 7a ef b2 b0 f6 bf 51 ce 61 20 33 7a f8 bf
       -1.4181393961570314 -1.5298339142726898
000790 1b 93 51 a1 c3 2e f2 bf b1 c9 e8 91 a4 65 e5 bf
       -1.1364170362005044 -0.6686575746337465
0007a0 34 57 ec 8e 5a b2 b5 3f 54 30 29 db ce 0b d3 bf
       0.08475271214805674 -0.2975957050555327
0007b0 d2 57 3a 01 5e 29 d7 3f 48 02 b8 f2 0e aa c3 bf
       0.3618998538962589 -0.1536272702360455
0007c0 16 ef 4b ba 11 13 9b bf 6c 63 51 06 00 49 cd 3f
       -0.026439930911677477 0.2287902861451373
0007d0 ee 3b b7 7a b6 f5 89 3f fb 8c 92 96 25 5b 81 bf
       0.012675691242206324 -0.008474630029303478
0007e0 3b 85 5c b4 c0 93 96 bf b2 c6 2e c6 e0 40 93 bf
       -0.02204800701941177 -0.01880217752085995
0007f0 67 05 66 18 26 7c b6 bf 37 4a 88 70 41 1e 7f 3f
       -0.08783186050097457 0.007597213385923277
