src/neural/mnist/layer_6_weights.npy (npy, 1408 bytes, 1 tensors)

array f8 [10, 16]
-2.498699877160295 -1.385100654204341 -0.31113469787174547 0.9453779727546596 -0.33103065367982576 1.7989093637641869 -2.34338557052023 -1.5845844250128553
2.2759907932733654 0.4482668075623836 -2.3775209349300686 0.2983839096887998 -1.8082351162760362 -1.4932314626512129 -1.3742774395098978 -3.130487531247617
0.5455090542908124 0.9643014352069919 -1.3728905489234662 -1.4712910012197216 0.2988120098699751 -2.1131136245324216 3.0735922595982004 -1.248734107773457
-3.467846777532427 -3.702003786659677 1.617274343125491 -1.4932272999126712 -0.4710241400176892 -0.03471128019571818 1.5153878385905497 1.5100074513199118
-2.1904567516267277 -0.25234650132115954 1.2998989407134465 -3.249862269761676 0.26030706124440217 0.2689846301393807 1.851636146019998 -0.7568944029159524
-1.8061521340437314 0.20406937653567253 -1.051352463917191 -2.714155527106526 -0.6119299062674931 -2.038283861943385 -2.313602173445674 1.278527313274055
1.1263023340945577 1.7096292080026796 -1.4052637572930127 -1.6015908789633517 -0.3714283675293115 -0.42266942761485343 0.9440532086984783 -1.6061073143687208
-0.05399172759647821 0.10755461098291678 -1.647564045593817 -2.068388145571993 -0.28524228229723797 -1.049311776832511 -1.0681018302801826 -3.03964978204725
-0.993067364051212 -1.7976694671379754 1.3901833866699946 -0.9790244961989792 -2.5961084533685503 -2.93971640732258 -1.611154838067227 1.1669827947957343
-1.6783786977738422 -1.1593222410429482 0.7550206624021248 0.49298126138588033 -0.3101303079132458 0.6424956246648112 -0.5373166536179201 1.2642206417884025
0.4441624328911327 0.3064897436353464 0.5139500399220941 -0.9565583923497203 -0.8171273027040548 -0.6166455736442008 -2.086192597119373 -0.17603824728417522
-0.38573000043012656 0.45680835740058 -2.004502715358242 -1.3275748832448309 -0.03622476341428398 -1.4256803139213676 -1.4695242230667587 -0.9615824056843383
-3.247961113330274 -1.600601457988164 -0.24110976149846083 -1.6310584933212031 0.5720056239953625 2.1932058764632125 -2.082701531408309 1.0076240099324478
-2.9181734627689973 -0.7664204674328521 -0.2612556623360645 1.7107461234786863 -1.9455018301653146 0.3921421417700239 -0.884674342829577 1.1235981970116213
0.8797910686165032 -2.7436059964791935 -0.8519899999793236 0.5501556235900601 -2.477967075658247 -1.890414771267249 -1.0499409801337118 -2.195246780167374
1.3256125034376214 -1.0114293500870954 0.04088939386403294 -0.4296363071806447 0.9288137200376483 1.1579245900444601 0.03316819806567367 -1.7424773193388283
1.2348197760540045 -0.40360650719858937 0.5059763364895907 -2.2701699246022664 -0.05006469172817073 -1.999148463022937 -2.0327385163421616 -1.645527634512636
-2.209749903409575 1.0585725314991912 -1.333183530015148 -1.8205980322541058 -0.3068090829844374 -0.8853327986298917 -1.6553597613106412 0.35078507423861155
1.0867270931771813 -1.8385131412117282 0.25049427570814625 0.9460748503246035 -1.8020600168372856 -2.3821555717505682 -2.121165738315625 -0.4396901951655966
-1.5499590862688821 -0.9342962743881259 -0.6559539416551303 -1.1508593192437353 0.409722072173473 0.01692755090347428 -0.43969036425002683 1.2886488802542317
00000000: a861 775c 56fd 03c0 149d b74d 5f29 f6bf
00000010: a3a3 0082 a1e9 d3bf a0e1 6a4e 8940 ee3f
00000020: 8cd0 e131 9b2f d5bf 985d 5d2f 55c8 fc3f
00000030: e96b 1aef 40bf 02c0 1be6 b232 755a f9bf
00000040: 80d9 38a9 3a35 0240 8237 9743 67b0 dc3f
00000050: d1a3 28b2 2905 03c0 5a06 71d3 b818 d33f
00000060: 3a26 fef1 87ee fcbf 8f1f 97ac 46e4 f7bf
00000070: c735 2557 0afd f5bf 50f4 f90b 3d0b 09c0
00000080: cd3a 7b67 cf74 e13f 8665 f6ae 8edb ee3f
00000090: 06d2 8914 5cf7 f5bf 6e34 d26e 688a f7bf
000000a0: e3c9 8268 bc1f d33f 4aca b01d a8e7 00c0
000000b0: 40b4 e189 b796 0840 7a96 a49d d0fa f3bf
000000c0: 7b53 8873 26be 0bc0 c7f8 4a29 b49d 0dc0
000000d0: 5124 c60f 5be0 f93f aee8 294f 42e4 f7bf
000000e0: f628 406f 4225 debf a95d 7c4a adc5 a1bf
000000f0: 650a 7851 073f f83f 532a c292 fd28 f83f
00000100: 4350 7c30 0e86 01c0 3acd 9bf0 7126 d0bf
00000110: 3c82 e7d4 62cc f43f bb0b 29ca b7ff 09c0
00000120: da9a bdf2 dea8 d03f a6d1 644f 0b37 d13f
00000130: 3cf5 3339 4da0 fd3f 3395 619c 7a38 e8bf
00000140: 4f18 b5c7 ffe5 fcbf 42fc 2a01 f21e ca3f
00000150: 627e 11f6 56d2 f0bf fd70 492c 97b6 05c0
00000160: 919f db06 ee94 e3bf 6217 f8c4 674e 00c0
00000170: c23a 37db 4182 02c0 84e0 580e d974 f43f
00000180: 7283 a598 5505 f23f b886 0a28 a45a fb3f
00000190: bb3d 7dd9 f57b f6bf 0883 ebc1 1da0 f9bf
000001a0: 7c15 d67c 7bc5 d7bf 4bfd 2712 040d dbbf
000001b0: 0867 2113 af35 ee3f df47 5195 9db2 f9bf
000001c0: 9315 90c0 cda4 abbf 2ba4 b4f0 b288 bb3f
000001d0: 1d41 de1d 6c5c fabf 8d53 8515 0f8c 00c0
000001e0: 5bcb 79d8 6841 d2bf 42da 4c25 fbc9 f0bf
000001f0: 379e ddf1 f116 f1bf e27d a9e7 3351 08c0
00000200: 6e65 6a35 35c7 efbf 7001 260f 41c3 fcbf
00000210: da0a 53ef 303e f63f 2d0a 252e 2b54 efbf
00000220: 4fb2 4082 d4c4 04c0 84b8 2709 8a84 07c0
00000230: 97a7 a44b 4ac7 f9bf 1947 aa26 f6ab f23f
00000240: 16de 139f a3da fabf d6e0 6c7a 958c f2bf
00000250: c548 9a17 2129 e83f 1f5d cc46 018d df3f
00000260: 5c17 7fca 2cd9 d3bf 4445 f8fb 528f e43f
00000270: f652 dcb1 b231 e1bf 938c 766c 3f3a f43f
00000280: f944 d844 286d dc3f 8449 5e28 879d d33f
00000290: 05c9 a75a 4772 e03f 8267 7b58 209c eebf
000002a0: 1f0b 3928 e825 eabf d1cc 807f 8fbb e3bf
000002b0: b447 8ebe 85b0 00c0 f620 77d9 6b88 c6bf
000002c0: cdbd 3be2 ccaf d8bf 52cc e41e 593c dd3f
000002d0: 9fa7 39b8 3809 00c0 ea70 2829 bf3d f5bf
000002e0: 37e1 565c 0d8c a2bf 1b7e 2d29 96cf f6bf
000002f0: 4c06 ecd4 2b83 f7bf f657 1a77 48c5 eebf
00000300: 5a77 4309 d3fb 09c0 48d3 3f46 109c f9bf
00000310: 8bed 3046 afdc cebf 75d7 6aca d018 fabf
00000320: 5d05 06bd de4d e23f a56f c685 af8b 0140
00000330: 8bd2 a56b 5fa9 00c0 1930 955a 3a1f f03f
00000340: ef2e 1554 6b58 07c0 047e 5337 8486 e8bf
00000350: b134 68ab 69b8 d0bf 8498 c153 375f fb3f
00000360: 09e4 ed86 c620 ffbf 0f48 925a db18 d93f
00000370: c306 4291 404f ecbf d326 601a 42fa f13f
00000380: 2daa 6099 3f27 ec3f a9e6 5fb3 e7f2 05c0
00000390: 7dc4 4d88 8043 ebbf 13f4 60f7 df9a e13f
000003a0: ab22 f466 e0d2 03c0 907d 278f 233f febf
000003b0: be78 c6e9 8ecc f0bf d1be 3b8b dd8f 01c0
000003c0: aeee d674 b535 f53f f26a cd8a d02e f0bf
000003d0: 066f cc62 74ef a43f 0ef7 2048 297f dbbf
000003e0: da68 f48c d7b8 ed3f 459a 57ef db86 f23f
000003f0: d82b eb0b 6cfb a03f f04f c9e5 2fe1 fbbf
00000400: 26b2 a961 d2c1 f33f 0aba 3763 b0d4 d9bf
00000410: d3b9 3849 f530 e03f 753c 74d9 4e29 02c0
00000420: 0e4a 504b 14a2 a9bf cf83 4819 83fc ffbf
00000430: bb12 4869 0c43 00c0 1156 eec8 1454 fabf
00000440: c4dd 7b5b 91ad 01c0 30ba 33c0 e9ef f03f
00000450: bfb1 cf40 b854 f5bf e917 fb66 2b21 fdbf
00000460: 8f2b 6290 c2a2 d3bf 1521 0673 a554 ecbf
00000470: dd18 5f84 5a7c fabf bbe7 713d 4373 d63f
00000480: 60f8 cdf2 3b63 f13f 6354 6cc1 8c6a fdbf
00000490: c71b 8024 1908 d03f e4ca b6c3 3e46 ee3f
000004a0: f5ec 5be2 3cd5 fcbf 1539 9594 a70e 03c0
000004b0: c0b0 1bbe 25f8 00c0 06eb 2658 e223 dcbf
000004c0: 349b 1ae6 a1cc f8bf 4db1 e84c c1e5 edbf
000004d0: 1aea e21e 93fd e4bf bd2d 2776 eb69 f2bf
000004e0: 82cd 1bed e238 da3f 788f 20b6 7455 913f
000004f0: 0a7e b40d e323 dcbf cd80 cb49 4e9e f43f
